Model
Model: "sequential"
________________________________________________________________________________
Layer (type)                        Output Shape                    Param #     
================================================================================
densenet201 (Model)                 (None, 7, 7, 1920)              18321984    
________________________________________________________________________________
flatten (Flatten)                   (None, 94080)                   0           
________________________________________________________________________________
dense (Dense)                       (None, 200)                     18816200    
________________________________________________________________________________
dense_1 (Dense)                     (None, 100)                     20100       
________________________________________________________________________________
dropout (Dropout)                   (None, 100)                     0           
________________________________________________________________________________
dense_2 (Dense)                     (None, 4)                       404         
================================================================================
Total params: 37,158,688
Trainable params: 18,836,704
Non-trainable params: 18,321,984
________________________________________________________________________________


