Model
Model: "sequential"
________________________________________________________________________________
Layer (type)                        Output Shape                    Param #     
================================================================================
densenet201 (Model)                 (None, 7, 7, 1920)              18321984    
________________________________________________________________________________
flatten (Flatten)                   (None, 94080)                   0           
________________________________________________________________________________
dense (Dense)                       (None, 200)                     18816200    
________________________________________________________________________________
dense_1 (Dense)                     (None, 50)                      10050       
________________________________________________________________________________
dropout (Dropout)                   (None, 50)                      0           
________________________________________________________________________________
dense_2 (Dense)                     (None, 4)                       204         
================================================================================
Total params: 37,148,438
Trainable params: 18,826,454
Non-trainable params: 18,321,984
________________________________________________________________________________


