Model
Model: "sequential"
________________________________________________________________________________
Layer (type)                        Output Shape                    Param #     
================================================================================
vgg16 (Model)                       (None, 7, 7, 512)               14714688    
________________________________________________________________________________
flatten (Flatten)                   (None, 25088)                   0           
________________________________________________________________________________
dense (Dense)                       (None, 100)                     2508900     
________________________________________________________________________________
dense_1 (Dense)                     (None, 50)                      5050        
________________________________________________________________________________
dropout (Dropout)                   (None, 50)                      0           
________________________________________________________________________________
dense_2 (Dense)                     (None, 2)                       102         
================================================================================
Total params: 17,228,740
Trainable params: 2,514,052
Non-trainable params: 14,714,688
________________________________________________________________________________


