Model
Model: "sequential"
________________________________________________________________________________
Layer (type)                        Output Shape                    Param #     
================================================================================
inception_resnet_v2 (Model)         (None, 5, 5, 1536)              54336736    
________________________________________________________________________________
flatten (Flatten)                   (None, 38400)                   0           
________________________________________________________________________________
dense (Dense)                       (None, 100)                     3840100     
________________________________________________________________________________
dense_1 (Dense)                     (None, 100)                     10100       
________________________________________________________________________________
dense_2 (Dense)                     (None, 2)                       202         
================================================================================
Total params: 58,187,138
Trainable params: 3,850,402
Non-trainable params: 54,336,736
________________________________________________________________________________


