Model
Model: "sequential"
________________________________________________________________________________
Layer (type)                        Output Shape                    Param #     
================================================================================
densenet201 (Model)                 (None, 7, 7, 1920)              18321984    
________________________________________________________________________________
flatten (Flatten)                   (None, 94080)                   0           
________________________________________________________________________________
dense (Dense)                       (None, 100)                     9408100     
________________________________________________________________________________
dense_1 (Dense)                     (None, 100)                     10100       
________________________________________________________________________________
dropout (Dropout)                   (None, 100)                     0           
________________________________________________________________________________
dense_2 (Dense)                     (None, 2)                       202         
================================================================================
Total params: 27,740,386
Trainable params: 9,418,402
Non-trainable params: 18,321,984
________________________________________________________________________________


