Model
Model: "sequential"
________________________________________________________________________________
Layer (type)                        Output Shape                    Param #     
================================================================================
vgg16 (Model)                       (None, 7, 7, 512)               14714688    
________________________________________________________________________________
flatten (Flatten)                   (None, 25088)                   0           
________________________________________________________________________________
dense (Dense)                       (None, 200)                     5017800     
________________________________________________________________________________
dense_1 (Dense)                     (None, 100)                     20100       
________________________________________________________________________________
dropout (Dropout)                   (None, 100)                     0           
________________________________________________________________________________
dense_2 (Dense)                     (None, 2)                       202         
================================================================================
Total params: 19,752,790
Trainable params: 5,038,102
Non-trainable params: 14,714,688
________________________________________________________________________________


