Model
Model: "sequential"
________________________________________________________________________________
Layer (type)                        Output Shape                    Param #     
================================================================================
densenet201 (Model)                 (None, 7, 7, 1920)              18321984    
________________________________________________________________________________
flatten (Flatten)                   (None, 94080)                   0           
________________________________________________________________________________
dense (Dense)                       (None, 100)                     9408100     
________________________________________________________________________________
dense_1 (Dense)                     (None, 50)                      5050        
________________________________________________________________________________
dropout (Dropout)                   (None, 50)                      0           
________________________________________________________________________________
dense_2 (Dense)                     (None, 2)                       102         
================================================================================
Total params: 27,735,236
Trainable params: 9,413,252
Non-trainable params: 18,321,984
________________________________________________________________________________


