Model
Model: "sequential"
________________________________________________________________________________
Layer (type)                        Output Shape                    Param #     
================================================================================
xception (Model)                    (None, 7, 7, 2048)              20861480    
________________________________________________________________________________
flatten (Flatten)                   (None, 100352)                  0           
________________________________________________________________________________
dense (Dense)                       (None, 100)                     10035300    
________________________________________________________________________________
dense_1 (Dense)                     (None, 100)                     10100       
________________________________________________________________________________
dense_2 (Dense)                     (None, 2)                       202         
================================================================================
Total params: 30,907,082
Trainable params: 10,045,602
Non-trainable params: 20,861,480
________________________________________________________________________________


